server/disease_gnn_modelols.pth (torch, 13740 bytes, 6 tensors)

conv1.bias f4 [64]
0.0 0.0 0.0 0.0 0.0 0.0 0.0 0.0
0.0 0.0 0.0 0.0 0.0 0.0 0.0 0.0
0.0 0.0 0.0 0.0 0.0 0.0 0.0 0.0
0.0 0.0 0.0 0.0 0.0 0.0 0.0 0.0
0.0 0.0 0.0 0.0 0.0 0.0 0.0 0.0
0.0 0.0 0.0 0.0 0.0 0.0 0.0 0.0
0.0 0.0 0.0 0.0 0.0 0.0 0.0 0.0
0.0 0.0 0.0 0.0 0.0 0.0 0.0 0.0
00000000: 0000 0000 0000 0000 0000 0000 0000 0000
00000010: 0000 0000 0000 0000 0000 0000 0000 0000
00000020: 0000 0000 0000 0000 0000 0000 0000 0000
00000030: 0000 0000 0000 0000 0000 0000 0000 0000
00000040: 0000 0000 0000 0000 0000 0000 0000 0000
00000050: 0000 0000 0000 0000 0000 0000 0000 0000
00000060: 0000 0000 0000 0000 0000 0000 0000 0000
00000070: 0000 0000 0000 0000 0000 0000 0000 0000
00000080: 0000 0000 0000 0000 0000 0000 0000 0000
00000090: 0000 0000 0000 0000 0000 0000 0000 0000
000000a0: 0000 0000 0000 0000 0000 0000 0000 0000
000000b0: 0000 0000 0000 0000 0000 0000 0000 0000
000000c0: 0000 0000 0000 0000 0000 0000 0000 0000
000000d0: 0000 0000 0000 0000 0000 0000 0000 0000
000000e0: 0000 0000 0000 0000 0000 0000 0000 0000
000000f0: 0000 0000 0000 0000 0000 0000 0000 0000

conv1.lin.weight f4 [64, 1]
0.024603834 -0.044705942 0.25380632 -0.059019446 -0.24112652 -0.09829484 -0.16341187 -0.19936608
-0.058825422 0.053557713 -0.05260376 0.24376579 0.28225145 0.24632132 -0.23660095 0.21617849
-0.2976636 0.13312764 -0.08401502 0.2180983 0.24043688 -0.1738421 -0.156298 -0.12069257
0.23637879 0.23928477 0.26423863 -0.1885719 -0.16417661 0.1291492 -0.013860014 -0.027644694
-0.053367786 0.08195829 -0.1989333 0.16242422 0.19413048 -0.021582425 0.012614536 0.087727435
-0.25218025 -0.15646684 0.29195184 0.14389396 0.08348362 -0.23331577 -0.14961396 0.05716847
-0.1678986 0.13866746 -0.044262774 -0.17675005 0.17516154 0.25013235 0.25143918 0.24895917
-0.06315961 0.122601286 0.22065382 0.14557526 -0.08012103 0.17887066 -0.117122784 0.09718605
00000000: fb8d c93c 941d 37bd e7f2 813e 60be 71bd
00000010: dfe9 76be ce4e c9bd 7155 27be 9f26 4cbe
00000020: edf2 70bd 555f 5b3d 0a77 57bd bd9d 793e
00000030: 4383 903e a83b 7c3e 8547 72be e55d 5d3e
00000040: 5d67 98be 9d52 083e 1110 acbd 2955 5f3e
00000050: 1635 763e aa03 32be 950c 20be ab2d f7bd
00000060: 480d 723e 1107 753e 494a 873e fe18 41be
00000070: ea1d 28be b03f 043e 1d15 63bc 2077 e2bc
00000080: 2e98 5abd bfd9 a73d 2cb5 4bbe 8952 263e
00000090: 24ca 463e a0cd b0bc 33ad 4e3c 71aa b33d
000000a0: c51d 81be d838 20be b67a 953e f058 133e
000000b0: 76f9 aa3d 54ea 6ebe 6734 19be 7c29 6a3d
000000c0: 9ced 2bbe d8fe 0d3e e24c 35bd f7fd 34be
000000d0: 8c5d 333e 5911 803e a3bc 803e 27ef 7e3e
000000e0: d359 81bd 6216 fb3d 13f3 613e ae11 153e
000000f0: 7f16 a4bd df29 373e 12de efbd 7b09 c73d

conv2.bias f4 [32]
0.0 0.0 0.0 0.0 0.0 0.0 0.0 0.0
0.0 0.0 0.0 0.0 0.0 0.0 0.0 0.0
0.0 0.0 0.0 0.0 0.0 0.0 0.0 0.0
0.0 0.0 0.0 0.0 0.0 0.0 0.0 0.0
00000000: 0000 0000 0000 0000 0000 0000 0000 0000
00000010: 0000 0000 0000 0000 0000 0000 0000 0000
00000020: 0000 0000 0000 0000 0000 0000 0000 0000
00000030: 0000 0000 0000 0000 0000 0000 0000 0000
00000040: 0000 0000 0000 0000 0000 0000 0000 0000
00000050: 0000 0000 0000 0000 0000 0000 0000 0000
00000060: 0000 0000 0000 0000 0000 0000 0000 0000
00000070: 0000 0000 0000 0000 0000 0000 0000 0000

conv2.lin.weight f4 [32, 64]
-0.14029223 -0.06774372 0.13486269 -0.14363852 -0.09385389 -0.060497552 0.13816845 0.22708654
0.07360953 -0.04294142 0.21063891 0.1528261 0.20434436 -0.16404548 -0.14849564 -0.13089904
-0.115413845 -0.0033279955 -0.22484592 0.22146231 0.20879656 0.061361432 -0.2024543 0.061484516
-0.23681882 0.0029226542 -0.080192566 0.1184082 -0.15642062 -0.24375123 -0.1636157 0.050263196
-0.080854386 -0.04967639 -0.14552736 0.112590164 0.11559358 -0.026575446 0.091365546 -0.21235466
-0.24334013 0.113377064 -0.20520532 0.09764069 -0.1535675 0.19649485 0.14539787 0.1956166
-0.15714237 -0.22770306 -0.08717573 -0.20704356 -0.23794067 0.22114846 0.17833069 0.09910697
-0.2153964 -0.055570364 0.17309308 0.15491048 -0.14842626 -0.17494962 -0.068072885 0.20267773
-0.20984459 -0.21219835 -0.05792275 0.20355645 -0.17306465 -0.05781457 -0.0680356 0.23325115
-0.010640621 0.24657583 -0.20159906 -0.111570984 0.15639737 0.037261903 0.10669607 -0.14922586
-0.047933966 0.05527565 -0.15619946 -0.13866302 0.07980254 0.23678032 0.19221625 0.008485138
-0.16703707 0.094613045 -0.22008348 0.1402123 -0.02957049 -0.1527771 0.002283752 0.095873475
-0.13140038 -0.22464031 0.21680221 -0.014042884 0.028511971 -0.16251981 -0.13415405 0.18937397
0.019483626 0.12239334 0.1709022 0.1723839 0.010144442 0.094070554 0.11328444 0.22542757
-0.08589366 0.06483176 -0.007170379 0.199121 0.20114127 -0.20347303 -0.11346054 0.010938376
0.06729382 0.024626315 -0.058529794 -0.18579733 0.12780634 -0.21758538 0.21687952 -0.16872522
-0.19713089 0.117587686 -0.035208017 -0.1915318 0.04988885 -0.16717753 -0.2089437 0.042693317
0.053070128 0.21288836 -0.09526819 0.107178956 -0.16104674 -0.13933456 0.1373612 -0.19821313
0.16196314 -0.22320044 0.011924326 -0.059568435 0.17860997 0.087038666 -0.08188471 -0.19778639
0.15376103 -0.020415187 -0.1344381 0.21626505 0.065659195 -0.17490944 0.007136613 0.14191136
-0.015646785 0.22371134 -0.12973157 -0.20208067 0.060899526 0.070497215 -0.069300085 -0.16951656
-0.14215454 -0.09824419 0.22220516 -0.038148284 -0.20961097 -0.060089856 -0.21777576 0.2043348
-0.24767777 0.24965188 0.1514593 0.042777777 0.20826432 -0.0835861 0.20041403 -0.09955156
0.18259025 -0.10925272 0.1590139 0.028950125 -0.026770264 0.1150271 0.011246681 0.16811863
-0.061110854 0.16451886 0.0058879554 -0.10025275 0.20479724 0.17263609 -0.2388109 0.065891206
-0.17207685 -0.11660954 -0.17781949 -0.0011624992 -0.02810371 0.21033707 -0.16340914 -0.21079716
-0.07224229 -0.053923756 0.13874966 -0.030379534 -0.23057407 0.24499553 0.08371842 0.110295385
0.116105676 0.054943472 -0.06117481 -0.022853643 0.1430768 0.049281776 0.16977644 -0.20288017
0.13566041 -0.06479043 0.19405675 0.20972183 -0.12417436 0.009014219 -0.12829226 -0.051304817
0.12961107 -0.007741362 0.11870432 0.040411323 -0.20632473 0.15646449 -0.081946045 0.13196921
-0.0052576363 -0.11124694 0.04359576 0.12535411 0.23198706 -0.10034162 0.2205334 0.099460155
0.04569614 -0.16955203 0.07999167 -0.15169588 -0.06222266 0.109015584 0.14045748 0.18206567
00000000: c4a8 0fbe 38bd 8abd 7219 0a3e fa15 13be
00000010: 7836 c0bd 48cc 77bd 087c 0d3e 6089 683e
00000020: 98c0 963d 58e3 2fbd bab1 573e 727e 1c3e
00000030: a63f 513e 8afb 27be 3e0f 18be 660a 06be
00000040: 185e ecbd 801a 5abb 023e 66be 04c7 623e
00000050: c4ce 553e 2056 7b3d 2e50 4fbe 30d7 7b3d
00000060: a280 72be 008a 3f3b 003c a4bd 0080 f23d
00000070: ba2c 20be ec99 79be e08a 27be c8e0 4d3d
00000080: fc96 a5bd 7879 4bbd 2005 15be ac95 e63d
00000090: 54bc ec3d c0b4 d9bc dc1d bb3d 8073 59be
000000a0: 282e 79be 3c32 e83d 5821 52be d8f7 c73d
000000b0: cc40 1dbe f235 493e 2ee3 143e b84f 483e
000000c0: eee9 20be fe2a 69be 3089 b2bd 3a03 54be
000000d0: b8a6 73be be74 623e 529c 363e 98f8 ca3d
000000e0: e090 5cbe c09d 63bd 503f 313e daa0 1e3e
000000f0: 0efd 17be fe25 33be cc69 8bbd c08a 4f3e
00000100: 80e1 56be 864a 59be 6840 6dbd 1a71 503e
00000110: dc37 31be f8ce 6cbd 4056 8bbd 64d9 6e3e
00000120: 0056 2ebc 607e 7c3e fc6f 4ebe 547f e4bd
00000130: a226 203e f09f 183d 7883 da3d aace 18be
00000140: 6856 44bd b868 623d c0f2 1fbe aefd 0dbe
00000150: 846f a33d 8a76 723e 56d4 443e 4005 0b3c
00000160: c40b 2bbe 7cc4 c13d 905d 61be d093 0f3e
00000170: d03d f2bc 9a71 1cbe 00ab 153b 5059 c43d
00000180: d28d 06be 1c08 66be 6601 5e3e 2014 66bc
00000190: f091 e93c 986b 26be ae5f 09be 40eb 413e
000001a0: 209c 9f3c 5ca9 fa3d fc00 2f3e 6885 303e
000001b0: e034 263c 10a8 c03d ac01 e83d 7cd6 663e
000001c0: 04e9 afbd 84c6 843d 80f5 eabb 60e6 4b3e
000001d0: faf7 4d3e 3c5b 50be 005e e8bd e036 333c
000001e0: 58d1 893d 20bd c93c f0bc 6fbd a841 3ebe
000001f0: aadf 023e b4ce 5ebe aa15 5e3e 4ec6 2cbe
00000200: aedc 49be d0d1 f03d 4836 10bd ea20 44be
00000210: 4058 4c3d 9630 2bbe 56f5 55be 30df 2e3d
00000220: 1060 593d 68ff 593e f81b c3bd a480 db3d
00000230: 70e9 24be b8ad 0ebe 6aa8 0c3e 62f8 4abe
00000240: aad9 253e a88e 64be 405e 433c 08fe 73bd
00000250: 88e5 363e 5441 b23d 2cb3 a7bd 8488 4abe
00000260: 8873 1d3e c03d a7bc 24aa 09be 9674 5d3e
00000270: 5478 863d 761b 33be 40da e93b 3651 113e
00000280: b02d 80bc 9614 653e 5ad8 04be 3cee 4ebe
00000290: c871 793d d860 903d 34ed 8dbd c095 2dbe
000002a0: f690 11be 4034 c9bd c089 633e 6041 1cbd
000002b0: 42a4 56be c820 76bd 9c00 5fbe 243d 513e
000002c0: 3e9f 7dbe bea4 7f3e 2618 1b3e c037 2f3d
000002d0: 3e43 553e 302f abbd 5639 4d3e b0e1 cbbd
000002e0: f0f8 3a3e e4bf dfbd 8ad4 223e d028 ed3c
000002f0: 504d dbbc 5493 eb3d 0044 383c 4a27 2c3e
00000300: 604f 7abd a277 283e c0ef c03b 5051 cdbd
00000310: 5eb6 513e 84c7 303e d88a 74be f8f1 863d
00000320: ea34 30be fcd0 eebd 5016 36be 005f 98ba
00000330: c039 e6bc 9a62 573e ba54 27be 36db 57be
00000340: c4f3 93bd 28df 5cbd 6414 0e3e 80de f8bc
00000350: 9c1b 6cbe 1ce0 7a3e 9074 ab3d 8ce2 e13d
00000360: d0c8 ed3d 680c 613d 7092 7abd 9037 bbbc
00000370: ba82 123e b0db 493d e0d9 2d3e d2bf 4fbe
00000380: 90ea 0a3e d8b0 84bd d0b6 463e 52c1 563e
00000390: 204f febd 60b0 133c 0c5f 03be 0025 52bd
000003a0: c4b8 043e 40ab fdbb 401b f33d 5886 253d
000003b0: ca46 53be 3a38 203e 54d3 a7bd f022 073e
000003c0: 4048 acbb 70d5 e3bd 7891 323d d45c 003e
000003d0: 048e 6d3e e87f cdbd 82d3 613e c4b1 cb3d
000003e0: e02b 3b3d 0c9f 2dbe acd2 a33d 2a56 1bbe
000003f0: 30dd 7ebd 9043 df3d 16d4 0f3e 6c6f 3a3e

fc.weight f4 [16, 32]
0.022086823 -0.12591895 -0.07411961 0.15175422 -0.041838292 -0.15337712 0.14563045 -0.02350673
-0.06629988 0.0851364 0.13541627 0.16523758 0.04408086 -0.10338843 0.16515969 0.16419548
0.16839477 0.16674624 -0.09704276 -0.023698457 -0.13230568 0.0737676 0.040668294 0.040677715
-0.026769698 -0.16701582 0.113137625 0.13675158 0.005091023 -0.11860829 -0.059331823 -0.043381497
-0.12151022 0.051507115 0.022280257 -0.0770079 0.12554333 -0.062393226 0.050552487 -0.13470107
-0.14318213 -0.0010584759 -0.14970969 0.13430369 -0.07032465 -0.15412046 -0.042787984 0.06352274
0.15456517 -0.00646265 0.056755956 -0.114705175 0.10483851 -0.05172282 -0.021629931 0.038052745
0.16828188 -0.097762756 0.1562675 0.13404097 0.12119619 0.051681455 0.08074818 0.062392507
-0.12820818 0.16244893 -0.1656733 -0.11987164 0.08443034 0.08899602 0.15391673 -0.10279012
-0.12540738 -0.09688363 0.13535461 -0.095679834 -0.1718073 0.122131765 0.1530304 -0.05230879
-0.008428569 -0.05695314 -0.17149666 -0.016131938 0.15153557 0.023371587 0.113105975 -0.12512143
-0.13548264 -0.03826822 -0.15279397 0.112646684 -0.031899936 0.1360815 0.13877042 -0.13881554
0.06686806 0.041798547 -0.122633986 -0.17021686 -0.13785277 0.010848156 0.09100931 0.051498685
-0.001111012 -0.097945355 -0.056403924 -0.09700087 -0.16407962 -0.0657568 0.1668987 -0.14814249
-0.15536542 0.14602539 0.1697651 0.08957446 -0.13440146 -0.072350204 -0.011867899 0.16476764
-0.086790204 -0.13218543 -0.15619011 0.1277547 -0.07835997 -0.17669523 -0.14449897 -0.014759194
0.0769329 -0.16444919 -0.11593915 -0.13748643 0.0882201 0.10182166 0.1549764 0.080674164
0.08520775 0.17508435 0.13262606 -0.06885221 0.13645388 0.11926553 -0.08730009 0.16022956
0.058232024 0.04497985 0.14904034 -0.10629197 -0.113544196 -0.041223306 -0.12037127 -0.048053917
0.021084908 0.09592224 -0.010613651 -0.13973494 -0.08834007 0.025726035 0.03911493 -0.15470065
-0.02521804 0.16675717 0.15214732 0.029896697 0.17467393 -0.15217322 0.08575257 0.044795185
0.1575164 0.022239143 -0.07708985 0.15586823 -0.07698645 0.17227298 0.0392003 0.14097914
0.0059690475 0.067733504 0.08299277 -0.098666064 -0.001292686 0.1352079 0.16526905 -0.044093885
-0.12154753 0.066932715 -0.021090535 -0.1556778 -0.0083910795 -0.018967472 -0.049827248 -0.00053608685
0.04131864 0.15674081 0.1347644 0.11035227 0.010088353 0.043362617 -0.033024203 0.001928998
-0.13270472 0.07144365 0.13161947 0.045379046 -0.16486673 -0.09229964 -0.03326838 -0.0474528
-0.13705967 0.1090371 -0.06628949 0.09373412 0.055328906 0.12519957 -0.07848466 0.11334419
-0.03575319 -0.002315632 -0.16163109 -0.053412385 -0.1360676 0.06939394 0.15908347 0.16103162
-0.017076153 0.037102565 0.16572888 -0.11710386 -0.020950839 -0.1352668 0.023840912 0.061263204
0.014914694 0.03536321 0.17228715 0.17409286 0.0036049674 -0.06964132 -0.13222471 -0.0821053
0.1016648 0.051442336 -0.03574938 0.123139985 -0.030288432 0.1450165 -0.101236284 0.10206677
0.13497485 -0.03677325 -0.10906367 0.14401072 0.059706066 0.16630101 0.119004324 0.15570864
00000000: 6def b43c e6f0 00be 06cc 97bd 7565 1b3e
00000010: a15e 2bbd e40e 1dbe 2620 153e 3091 c0bc
00000020: 3bc8 87bd fe5b ae3d 90aa 0a3e 0a34 293e
00000030: 228e 343d 50bd d3bd 9f1f 293e dc22 283e
00000040: ae6f 2c3e 87bf 2a3e 5bbe c6bd 4423 c2bc
00000050: 247b 07be 7813 973d cc93 263d ad9d 263d
00000060: 204c dbbc 3206 2bbe b3b4 e73d 9b08 0c3e
00000070: 99d2 a63b e7e8 f2bd ed05 73bd ccb0 31bd
00000080: 5ada f8bd 20f9 523d 1685 b63c 51b6 9dbd
00000090: 6e8e 003e 0a90 7fbd 2010 4f3d 14ef 09be
000000a0: 569e 12be 8fbc 8aba 7f4d 19be e886 093e
000000b0: 5f06 90bd c1d1 1dbe 7442 2fbd 3618 823d
000000c0: 5546 1e3e a3c4 d3bb ef78 683d 8cea eabd
000000d0: 93b5 d63d 4fdb 53bd 4131 b1bc 32dd 1b3d
000000e0: 1652 2c3e d737 c8bd 9604 203e 0942 093e
000000f0: b535 f83d efaf 533d 4d5f a53d 498f 7f3d
00000100: 0149 03be 0359 263e 43a6 29be 437f f5bd
00000110: d0e9 ac3d 8c43 b63d 599c 1d3e a083 d2bd
00000120: cb6a 00be ed6a c6bd 669a 0a3e caf3 c3bd
00000130: 41ee 2fbe 3820 fa3d 00b4 1c3e be41 56bd
00000140: fb17 0abc b247 69bd d29c 2fbe 2027 84bc
00000150: 242c 1b3e c575 bf3c 1ba4 e73d d51f 00be
00000160: f6bb 0abe 23bf 1cbd 0676 1cbe 4eb3 e63d
00000170: 82a9 02bd f358 0b3e d519 0e3e a925 0ebe
00000180: 1ff2 883d f434 2b3d 8727 fbbd 544d 2ebe
00000190: 4729 0dbe 77bc 313c 1763 ba3d 49f0 523d
000001a0: 609f 91ba 9397 c8bd cd07 67bd 64a8 c6bd
000001b0: 7d04 28be 80ab 86bd 7ee7 2a3e aab2 17be
000001c0: 1d18 1fbe ae87 153e e7d6 2d3e d172 b73d
000001d0: 89a0 09be 582c 94bd 9471 42bc d9b8 283e
000001e0: 10bf b1bd 9e5b 07be 4df0 1fbe 21d2 023e
000001f0: 317b a0bd 98ef 34be 8af7 13be 8cd0 71bc
00000200: ff8e 9d3d 5e65 28be 8171 edbd 3ec9 0cbe
00000210: bdac b43d e087 d03d 22b2 1e3e 7f38 a53d
00000220: 6781 ae3d 5049 333e 20cf 073e 6302 8dbd
00000230: 91ba 0b3e 7c41 f43d 64ca b2bd 3813 243e
00000240: b484 6e3d cb3c 383d 089e 183e 9baf d9bd
00000250: dc89 e8bd c5d9 28bd 3685 f6bd 2fd4 44bd
00000260: 42ba ac3c e172 c43d e1e4 2dbc ad16 0fbe
00000270: a3eb b4bd 68bf d23c fa36 203d d969 1ebe
00000280: 1096 cebc 64c2 2a3e 82cc 1b3e ebe9 f43c
00000290: b9dd 323e 4cd3 1bbe 0b9f af3d 287b 373d
000002a0: fb4b 213e dd2e b63c 49e1 9dbd ec9b 1f3e
000002b0: 12ab 9dbd 5468 303e 7e90 203d d65c 103e
000002c0: 0098 c33b ddb7 8a3d 1df8 a93d 6f11 cabd
000002d0: 586f a9ba f173 0a3e 4a3c 293e ca9b 34bd
000002e0: e9ed f8bd 0514 893d 0fc6 acbc 006a 1fbe
000002f0: bd7a 09bc ac61 9bbc a817 4cbd 2e88 0cba
00000300: bc3d 293d aa80 203e aeff 093e 5f00 e23d
00000310: 9f49 253c 009d 313d 6344 07bd 6fd6 fc3a
00000320: bfe3 07be 0c51 923d 41c7 063e 61df 393d
00000330: d3d2 28be 9807 bdbd 6d44 08bd de5d 42bd
00000340: 5f59 0cbe d84e df3d c9c2 87bd adf7 bf3d
00000350: 90a0 623d 5134 003e 91bc a0bd 0021 e83d
00000360: f071 12bd dcc1 17bb 9f82 25be f2c6 5abd
00000370: 4e55 0bbe 691e 8e3d c7e6 223e 79e5 243e
00000380: 4ae3 8bbc dcf8 173d d5b4 293e 26d4 efbd
00000390: 18a1 abbc 6183 0abe 044e c33c 20ef 7a3d
000003a0: c35c 743c 03d9 103d 0b6c 303e 6645 323e
000003b0: 5141 6c3b 1ca0 8ebd ea65 07be d326 a8bd
000003c0: a235 d03d 33b5 523d f16d 12bd d130 fc3d
000003d0: 721f f8bc 357f 143e f854 cfbd 6208 d13d
000003e0: d936 0a3e 8c9f 16bd c65c dfbd 8c77 133e
000003f0: 598e 743d d04a 2a3e 8ab8 f33d 1672 1f3e

fc.bias f4 [16]
-0.055865835 0.13114353 0.00575433 -0.100394316 -0.07047787 0.0076871426 0.17015994 0.07694385
0.11238893 -0.04180038 0.024412002 -0.08586501 0.12954953 -0.13503812 -0.17661709 -0.119859315
00000000: 93d3 64bd 7d4a 063e d28e bc3b 899b cdbd
00000010: b456 90bd 6de4 fb3b 683e 2e3e bd94 9d3d
00000020: 2b2c e63d e036 2bbd aefb c73c ffd9 afbd
00000030: a2a8 043e 6f47 0abe 1cdb 34be cd78 f5bd
